model/model_no_ipex.pt (torch, 830539 bytes, 8 tensors)

conv1.weight f4 [16, 1, 3, 3]
00000000: 0c4d 9b38 303b 1cbe 0b87 613e 0011 c3be
00000010: 6a30 b93e 963a 323c 95df 0ebf dbae 223f
00000020: 4698 e9bd d94c ba3e 8e8c 013d 6ff2 423e
00000030: e29c 47bd de3e e1be 56db c4be ebd5 87be
00000040: e52c 053e 9c2e 9d3e de7e 81be 04b4 c8be
00000050: 8dbb 233f b422 9dbc 9fc0 b3be 6b4c b83e
00000060: 6740 0e3f fcbf a8be 36f1 71be dd37 12bf
00000070: 6598 60bd 528a df3e 555f 68be a5f2 d63e
00000080: bc63 9a3c a1b7 d4bb ee4f 453e a75f dabd
00000090: a854 b2be 1d6d 023e 5b93 8c3e cffb aabe
000000a0: 8f09 e1be c9db 82bd db35 aebd 578e fabd
000000b0: 97ee 01be 14d8 abbe 0f06 56bd ed11 b7be
000000c0: 8f6c 2bbc 7ca3 783d 3b1a 0e3f 97e3 4dbd
000000d0: f841 0cbe 13ad bd3e c1ad 00bb 7312 7bbe
000000e0: 1d55 803e 554a 15bf 4dbe aabe 4581 133f
000000f0: eb41 b13e 6f75 a73e 5199 86be 0560 debe
00000100: a583 003f 2ab4 93bd 192e a03c c80a 063f
00000110: f777 0cbf 21b8 da3e 76e8 92be bb04 15be
00000120: 01f4 e2be 3be1 ac3d 3af2 a13e fa33 42bf
00000130: d00c d53d 3f07 5c3e a05c 033f e7b2 8a3e
00000140: 87fd 0c3e e413 9fbe 6486 c3be 68cb 78be
00000150: b498 8b3c 379a adbe ff75 83be 5126 373f
00000160: 0a77 033f faba 9bbc 253f 9cbe 1012 b53e
00000170: 1baf 6f3e 2552 a8be 16d8 7f3d c652 963e
00000180: e55f c6be 51ad bd3d 01ad 3e3d e1b8 dd3e
00000190: fe9b bebb e4d8 cbbe 90cd 073f 41a6 4dbe
000001a0: 48ba afbe 1fd2 b5be 790b 983c 7c65 b73e
000001b0: 1d72 13be 2cb7 53be f4a9 e63e 941b aa3e
000001c0: c90f 993e 0124 de3e 19fa 0ebe 8264 9c3e
000001d0: 15f6 5e3e 9b64 ba3d 4a9a ee3d 8a25 b03e
000001e0: 192e 91be aaca e2be f7c7 01bd e9de 64be
000001f0: 0540 febe 38e4 ea3e 4ea5 c13e 2818 cd3e
00000200: 738e 53be d6cf 743e 8737 d93e ef4f 83bb
00000210: 571d f7be fe06 3bbf fd33 29bb 3f41 823e
00000220: 4047 903e 7da0 23be a6b7 84be 2c27 88be
00000230: f66d 42be 369e e6bb ea12 9ebe 9e90 3abe
7.405327e-05 -0.15256953 0.22024171 -0.38098907 0.3616975 0.010878226 -0.5580991 0.6354806
-0.11405997 0.36386755 0.031628184 0.19037794 -0.0487336 -0.43993276 -0.3844859 -0.26530394
0.13005407 0.30699623 -0.25292104 -0.3919984 0.63958055 -0.019181587 -0.35107896 0.35995802
0.5556702 -0.32958972 -0.23627171 -0.5711649 -0.054832835 0.43660218 -0.22692616 0.41981998
0.018846385 -0.006491617 0.19268772 -0.106627755 -0.34830213 0.12736936 0.27456173 -0.3339524
-0.43952605 -0.06389577 -0.08506366 -0.122341804 -0.12688671 -0.33563292 -0.05225187 -0.35755864
-0.010462894 0.060702786 0.55508775 -0.050265875 -0.1369704 0.37046108 -0.0019634815 -0.24518757
0.25064936 -0.58316547 -0.33348313 0.57619125 0.34620604 0.32706782 -0.26288846 -0.43432632
0.50200874 -0.07212098 0.019553231 0.523602 -0.5487055 0.42718604 -0.2869298 -0.14552586
-0.44326785 0.08441397 0.31630117 -0.7586056 0.104028344 0.21487139 0.5131321 0.27089617
0.13768588 -0.31069863 -0.3818847 -0.24296343 0.017040588 -0.3390672 -0.2567596 0.7154284
0.51353514 -0.019010056 -0.30516925 0.35365343 0.23406641 -0.3287517 0.062461935 0.29360026
-0.38745037 0.09261573 0.046551708 0.43305114 -0.0058169356 -0.39813912 0.5304804 -0.20082952
-0.3432181 -0.35511872 0.018560158 0.35819614 -0.14399 -0.20675343 0.4505154 0.33224165
0.29894856 0.43386844 -0.13962592 0.3054543 0.2177356 0.0910122 0.11650522 0.3440364
-0.28355482 -0.44295245 -0.031684842 -0.22350658 -0.49658218 0.45877242 0.3782143 0.40057492
-0.20659809 0.23907408 0.42425177 -0.0040073316 -0.48264572 -0.73057544 -0.002581834 0.25440404
0.2817936 -0.1597919 -0.25921363 -0.26592386 -0.1898726 -0.007037903 -0.30873805 -0.1821923

conv1.bias f4 [16]
00000000: 32c4 69bb c76d 62bd 029e 7dbb 777f 183e
00000010: e652 06bf f8e7 a13d ae6d 9f3d cf22 843a
00000020: 1de6 70be aa94 bf3d 0656 e33b b284 2c3c
00000030: fba1 8cbe 4b13 86be 2477 233c 25dc 03be
-0.003566992 -0.055280473 -0.0038698916 0.14892374 -0.5247024 0.07905573 0.077845916 0.0010081175
-0.23525281 0.09354527 0.006937745 0.010529684 -0.2746733 -0.26186594 0.009977136 -0.12876947

conv2.weight f4 [32, 16, 3, 3]
00000000: 5828 d1bd 05f0 7e3e fc24 2bbf 09d8 923e
00000010: ee51 2b3e 8e07 fabe 494a 393e 621f 523e
00000020: f855 80bd 94ea a23d d08a 43bc b195 593d
00000030: 4883 79bd b964 58be 4602 0c3e 5b21 42be
00000040: 3de6 083e fcb9 da3d f7cf d73d 72f3 33be
00000050: 6572 91bd 86f9 b63d 59b8 a0be 30f5 44be
00000060: 7818 89bc cdcf 24be c74b 1c3c aeeb c3bd
00000070: 3bed 43bd b06c 96be ac21 693e 84c9 893d
00000080: 1018 93be 70d7 833e 642b 4a3d b92e 17be
00000090: b9f2 a33e ef7d a9bd 6f9c 803e 8afb 083d
000000a0: dcdd c7bd f13b d0bd cd30 683a 2a85 64bd
000000b0: 6bf4 08be 4e3e 103e 240c b9bd 06c7 a1bc
000000c0: 0777 363e 93fc 203e 18a9 d13d 543d a0bb
000000d0: c279 703d 8f41 203d e106 83bd 9538 8f3d
000000e0: fa9f eebd da4a 613e 7946 8fbe ad00 c3be
000000f0: 44c1 2e3e 67c0 9d3c 2dd4 ca3b 337f f8bd
00000100: 1f4f 2b3d 082f ddbd ed96 9b3e 8ee0 453e
00000110: 54f3 e4be 20d1 6c3e a5de 0d3e 1301 20be
00000120: dd1e 8ebe 094c 9ebe 65ab a6be b88d 643d
00000130: a123 fcbb 57a6 89bd 63cf ab3d 5fcf 5a3e
00000140: db66 25be 4508 5b3c 2f4b 4f3e a649 b13d
00000150: 8114 fe3d f8bb f2bd 5b65 d43d 40be 41bd
00000160: 945f 863c 4f54 293e 7760 56bd e77c 3bbc
00000170: f748 49be a9d0 f33d f54a 593e f857 84be
00000180: 1bef d23d f8f2 163e 8f99 14bd ca30 493d
00000190: 5493 043d 6c8e 3a3d b6d7 293c 52b3 09be
000001a0: 4c05 80bd e1b0 d93c a9b1 a53d bb63 d2bc
000001b0: fba3 e7be 194a 02bf 7472 eebe e117 f4bd
000001c0: 4f0e 33bd 276a 5abd 7bf7 563e cb28 a2bc
000001d0: b2aa 15be f17e 0f3e 41b8 47be 2e1a b6bd
000001e0: 324a 6cbd 1001 2ebe 6d3c 4ebe 9668 0bbe
000001f0: cd8b af3d 487e 08bd 0462 1cbe 95e7 9cbd
00000200: 9182 b8bd 42c1 88be b5de 14bb 9d0e 8fbd
00000210: 45e4 eebd 11a9 ae3d 247c febd 0104 973c
00000220: e547 03bd 24af 3d3e 9bd9 bdbc ba3c 7abe
00000230: ef62 d7bd 29f9 1cbe d0e7 bfbc da45 6bbd
00000240: 95ca 2a3e 8d12 cd3d da89 2fbd e845 b53e
00000250: f78b 5bbd 01d2 2f3e 8044 0fbe 58f3 8e3d
00000260: a0cb b83d 34a2 e83d f4e4 09bd 8d2c c63d
00000270: 2351 0ebe c2ad 5bbe 6c57 c63d 97d3 68bd
00000280: b992 ef3d 97e5 9dbc 28a0 023e 5c94 de3d
00000290: 22ad 92be 5a2b 5b3e c9a3 d03d 78dc c93d
000002a0: 0429 2fbc ea55 7cbd 40ef a1bd 46a8 f6bc
000002b0: 0bb3 8f3d d933 6dbd 768e f03d ef77 18bd
000002c0: a63e 993c 3cf4 1ebe c1ba 1dbc 0529 26bd
000002d0: 6c0b a13e f7e2 13bd d50f cabb 5609 0c3e
000002e0: fe4c 54be 614c 21bc 0ea3 14be 0cb2 91bd
000002f0: a501 1a3d 2722 323e f5b8 4abc 7b99 063e
00000300: c77d ca3d 5ac5 033e 3789 823d 30ef 8fbd
00000310: df0f 363d 31ee 293e cad4 363e 7a56 7e3d
00000320: 9b27 c13d a80d 9c3e bd6a dcbd 0d9a ce3d
00000330: 46cb 09be d43a 9abe 011e adbe 7704 23be
00000340: 7066 d13e d4ff 48be 593a ad3e 4156 0cbe
00000350: a72e afbd 40d4 a23e f5d9 e33d 8841 febd
00000360: 52dc 813d 552b 5cbe 6970 62bd c46f 813e
00000370: b219 1d3e 377c 113e 7f44 49be 7b5f 08bd
00000380: aa51 bdbd 9be3 933d 4816 803d 7917 173e
00000390: 8cbd 97bd 3d4a 823b 43df 9abd 59c7 5e3d
000003a0: db25 47bd 2cac f5bd c31b c63c 2216 dcbd
000003b0: 819e 13be 441d 003e 3cc5 12be 9bde a1bd
000003c0: b4b1 afbe 33a2 163c 48ba 2c3e be27 5f3d
000003d0: 9ae4 833e 0b0c 03bd b217 563d f82f f4bb
000003e0: 7849 05be 14d5 43be 91c6 e03d 74e3 78be
000003f0: dbfb 00be ff58 95bd 503c 39be 6ac5 8bbe
-0.10212773 0.24896248 -0.6685331 0.28680447 0.16730472 -0.4883389 0.18094744 0.20519784
-0.06266397 0.079548985 -0.011934951 0.053121272 -0.060916215 -0.21132173 0.13672742 -0.18958037
0.13369079 0.10680005 0.10537713 -0.17573336 -0.07101897 0.089343116 -0.31390646 -0.19234157
-0.0167353 -0.16094895 0.009539551 -0.09566437 -0.047833662 -0.29379797 0.22766751 0.06727889
-0.28729296 0.25750303 0.049357787 -0.14763917 0.3202112 -0.08275973 0.2511935 0.03344301
-0.09759113 -0.10167683 0.00088573695 -0.055791058 -0.13374488 0.14086267 -0.09035519 -0.019748222
0.17818843 0.1572135 0.1023733 -0.0048901234 0.058709867 0.03912502 -0.063977964 0.06993214
-0.11651607 0.2200121 -0.27983454 -0.38086453 0.17065912 0.019256784 0.006189844 -0.12133636
0.041823503 -0.10799986 0.30388585 0.19323942 -0.44716895 0.2312665 0.13854463 -0.1562541
-0.27757922 -0.30917385 -0.3255264 0.055799216 -0.007694677 -0.0672118 0.08389165 0.21368168
-0.16152517 0.013368671 0.20243524 0.086566254 0.124062546 -0.118522584 0.103708945 -0.047300577
0.016402997 0.16536067 -0.05233809 -0.011443353 -0.1965674 0.11905033 0.2122 -0.25848365
0.10299512 0.14741123 -0.036279257 0.049118795 0.032367066 0.04554598 0.010366371 -0.13447312
-0.0625101 0.0265736 0.080905266 -0.02568232 -0.45242295 -0.50894314 -0.46571696 -0.11918617
-0.043714818 -0.05332389 0.20992844 -0.019794842 -0.14615896 0.14013268 -0.19503881 -0.08891712
-0.057687946 -0.16992593 -0.20140238 -0.13614115 0.08571587 -0.033323556 -0.15271765 -0.07661358
-0.090092786 -0.26709944 -0.0022715752 -0.06985209 -0.11664633 0.085283406 -0.12426022 0.018434526
-0.032050986 0.18523842 -0.023175051 -0.24437228 -0.10516917 -0.15329422 -0.023425967 -0.057439663
0.16678841 0.10013304 -0.042856075 0.35404897 -0.053600278 0.17169954 -0.13990974 0.06980008
0.090232134 0.11359063 -0.033665612 0.09676466 -0.13898139 -0.21453002 0.09684643 -0.056842413
0.11697907 -0.019274516 0.12756407 0.10868141 -0.28647715 0.21403256 0.101874895 0.09856504
-0.010690931 -0.06160537 -0.079069614 -0.030109536 0.070165716 -0.057910774 0.11745922 -0.037223753
0.01870663 -0.15522856 -0.009627045 -0.040566463 0.31454027 -0.036105122 -0.006166438 0.13675436
-0.20732495 -0.00984487 -0.14515325 -0.07114038 0.037599225 0.1739584 -0.012373199 0.13144486
0.098872714 0.12868252 0.06373828 -0.07028043 0.04444873 0.16594769 0.1785461 0.06209419
0.09431382 0.3047917 -0.10762546 0.100879766 -0.13456449 -0.30123007 -0.33811954 -0.15919672
0.40898466 -0.1962884 0.33833578 -0.13704778 -0.0855382 0.3180256 0.111255564 -0.12414843
0.06340851 -0.21500905 -0.055282984 0.25280583 0.15341833 0.1420754 -0.19655035 -0.033294182
-0.09244092 0.07221147 0.0625425 0.14755048 -0.074092 0.003976135 -0.07562115 0.05438933
-0.048620086 -0.1199573 0.02418316 -0.10746409 -0.14415933 0.12511164 -0.14333051 -0.07903787
-0.34315264 0.009193945 0.16867936 0.05448126 0.25760347 -0.031993907 0.05226869 -0.0074520074
-0.13016307 -0.19124252 0.109753735 -0.24305516 -0.12596075 -0.07292365 -0.18089414 -0.27299052

conv2.bias f4 [32]
00000000: 126a 00be 41f9 f3bd 9fe9 93be 1700 8a3e
00000010: 3a3e 743c 08d6 763d e7a8 24be f420 5e3b
00000020: 9805 3c3d c148 ae3b 7bac 97be ea78 5fbe
00000030: b775 6cbd 14f8 85be 5eb8 ac3d 5f44 d2be
00000040: 2392 92bd 1e7d a3bd b4c2 233d 741b 4cbd
00000050: 2041 6a3d 4050 23bc ca8b 6a3e 2ba2 87be
00000060: 3aba f2bc 7f83 17be 1bf7 8dbd bafb 68be
00000070: c345 ba3b 5693 10be b05f 6cbe d1c5 a63c
-0.12540463 -0.11912776 -0.28889176 0.26953194 0.014907414 0.06026271 -0.16080056 0.0033894153
0.045903772 0.0053187315 -0.2962378 -0.21823469 -0.05772945 -0.2616583 0.08433603 -0.41067788
-0.071567796 -0.079828486 0.039980605 -0.04983087 0.057191014 -0.009967864 0.22904888 -0.26490912
-0.029629815 -0.14796256 -0.06931897 -0.22752276 0.005684586 -0.14118704 -0.23083377 0.020357998

fc1.weight f4 [128, 1568]
00000000: 04f8 8a3c 791b 5fbb 3433 88bc 61c3 e93b
00000010: 0da6 b1bc 8f28 8bbb cb5c 2639 02ad acbb
00000020: 6abf a1bc 55a4 8c39 d1f0 143c 001b c73b
00000030: 55fd 563c d4fa 32bb 185d d7bc 3916 683c
00000040: edee 9ebc 13bd abbc 9e18 1f3c 8d72 2e3a
00000050: 61f2 453b a1f5 1cbc 2843 fcbc 69da 08bc
00000060: 94a6 833c 9c26 c9bb 6315 0ebb cc26 703c
00000070: 7249 7abc c34a abbb 06ae d8bc 280a 0e3c
00000080: e682 bbbc 43b2 a3bb 1a9f 8cbc e1b3 81bb
00000090: 182b d8bc 6cc0 9f3a 7782 7d3b ae02 9fbc
000000a0: e907 9dbc 5653 403b 314c 033c dc0f 07bc
000000b0: 958e b0bc 8dd3 6f3c b083 0bbc 03e3 4ebc
000000c0: 79db 63bc 784c dab9 717b 99bc 3cc3 00bc
000000d0: bc1e 31bc 44cc bb3b 520d 833c a5ff c1bc
000000e0: 2298 18bc c850 2bbb 810e c6bc 35b9 97bc
000000f0: 4fc5 15bb f295 783b e256 7fbc 0cfe 853b
00000100: 93c3 bb3c fa0f b13c 42ac 8cbc 987b f6bc
00000110: 372c f93c f60a 7dbc cba8 13bc 0ab4 053c
00000120: 5333 c03b fb2c 8fbc 148d ec39 c937 25bc
00000130: ba28 0e3c 9652 b4bb c506 be3c 45db 4ebc
00000140: 1b17 1fbc 80e2 693c d67f 053c 3818 5b3c
00000150: 1e45 bf3c 7be1 c13c 39a9 4f3c b440 333b
00000160: 5b70 d43b 7342 eb3c db60 9d3c b4fd 7e3c
00000170: a784 923c 71f8 23bc fbc0 993c 5868 063b
00000180: 9eb4 1ebc 907e 44bc 9171 0ebc f906 013c
00000190: 4163 e6bb b5e0 063c 504f 443c d0da d9bb
000001a0: 91c0 ae3b 58e1 143c 2156 743c 0fcf 62bc
000001b0: 4c7f 143c 82bd 8dbc ab1b e4bb 89cf f13b
000001c0: 2ec4 81bc 4021 c2bc 1b4a 03bc 9390 debc
000001d0: 9f1b 243a 0eae 5cbc 4253 963b e336 5ebc
000001e0: 35aa c23a 209d 033c 9dba 88bb 1b18 de3b
000001f0: 93a1 eebc 5091 8ebb ade4 81bc 65c4 993b
00000200: 7e77 60bc 2f34 dcbc 3b9d 52bc 70b3 233c
00000210: 84d6 083c 6461 ccba 895d 203c 083d 0cbc
00000220: 34cc 933c 2444 e9bc 05f7 a73c c158 a6bc
00000230: bfa2 a63b cdb2 9abc df5d 883c 3db9 0dbc
00000240: 35a4 eabc a062 f8bc 29cf 0b3b 390d 24bc
00000250: 1291 983c 42ee e23b aa15 e9bc c879 b6bc
00000260: 1ae9 81bc cdf0 753c a01f fbba c34f 7ebc
00000270: d73a ab3c 22fd bfbc 1ad3 153c ff31 9f3a
00000280: cb4b 1b3c 660f abbc a34f 54bc c680 1abc
00000290: a90b 3abb 89cb 833c 3463 f13a e821 943c
000002a0: 5113 92bc 9a82 06bd 0697 13bc 7a77 09bc
000002b0: 4455 9ebc 1ea6 eabc ebb0 823c d27c f6bb
000002c0: a719 c93b 708b 223c 8bba eebb c902 91bc
000002d0: bdf9 833c a81c bc3b 14f1 8abc ef96 3e3c
000002e0: eaad 973c cbbd a3ba b6c5 093c a67b b8bb
000002f0: c88c 073d 1cf7 babb 2e94 0cbd 7931 073b
00000300: 2912 c03b 6b09 a73a 2e0a 613b 7312 d4bb
00000310: 5c76 bdbc f6d1 77bc a09e 5eba 75c3 5f3b
00000320: 59cf 7fbc 84a4 533a ec55 b83b b909 813c
00000330: 8cd6 8a3c 4609 17bc 0b36 d3bc 53c9 d53b
00000340: 6663 6eba 0706 333b 3b13 a0bc b9ff 8d3c
00000350: be27 52bc 3220 8b3c bb91 b0bc cbe6 d1bc
00000360: 7718 1b3b c9bd 00bd 4659 96bb b454 ca3b
00000370: 50ed cfbc 9628 8a3b 1f8e e23b 8418 8db9
00000380: 0356 e3bc ced2 dd3b efdc 9b3a 50b0 74bc
00000390: ca5f 843c 4a55 703c b645 8cbc e8c0 80bc
000003a0: cdea 04bd 0fb8 43bb 2e05 b3bc 8355 41bc
000003b0: 770b 5bbc fdee e5bc 16d3 8bbc 053f 07bc
000003c0: f6fc 92bb 3cc9 a4bb 04da 713c 7bea 43ba
000003d0: d27e efbb 47cd b1bc 1095 e0bc 197a 6fbc
000003e0: 111e 0d3c 2203 43bc f240 86ba 4860 d63b
000003f0: 0a50 26bc a774 f63b df0f a23c 53fc 78bc
0.016963966 -0.0034043475 -0.016625978 0.0071338867 -0.021685624 -0.0042467783 0.00015865562 -0.0052696476
-0.019744594 0.00026825318 0.009090618 0.0060762167 0.0131219225 -0.002731015 -0.026289508 0.014165455
-0.019401038 -0.020964181 0.009710459 0.00066546426 0.0030204284 -0.009580047 -0.030793741 -0.008352854
0.016070642 -0.006138636 -0.0021680228 0.014657687 -0.0152763 -0.005227418 -0.026450168 0.008669414
-0.022889566 -0.0049956157 -0.01716571 -0.003958211 -0.026387736 0.0012188083 0.00386825 -0.019410457
-0.01916881 0.0029346547 0.008013771 -0.008243527 -0.021552363 0.01463784 -0.008515283 -0.012627366
-0.013907307 -0.00041637174 -0.01873562 -0.0078590475 -0.01081055 0.0057311375 0.015997563 -0.023681471
-0.009313615 -0.0026140679 -0.024176838 -0.01852093 -0.00228532 0.0037931171 -0.015584679 0.0040891226
0.022920405 0.021614064 -0.017171983 -0.030088231 0.030416591 -0.015444508 -0.009012411 0.0081606
0.0058654933 -0.017477503 0.0004511854 -0.010084101 0.008676702 -0.005503009 0.023196587 -0.01262552
-0.009710099 0.014275193 0.008148154 0.013372473 0.023348387 0.023667088 0.012674623 0.0027351798
0.0064831204 0.028718209 0.019211223 0.015563417 0.01788552 -0.0100079635 0.018768778 0.002050897
-0.009686617 -0.0119930655 -0.0086940685 0.007875198 -0.007030875 0.008232285 0.0119818 -0.006648399
0.0053330143 0.009086929 0.014913113 -0.013843312 0.009063553 -0.017302278 -0.006961306 0.0073794764
-0.015840616 -0.023697495 -0.008013274 -0.027168548 0.00062602194 -0.013469232 0.004587562 -0.013562891
0.0014851751 0.008033067 -0.0041726367 0.006777776 -0.029129779 -0.0043508187 -0.015856111 0.0046926015
-0.013700364 -0.026880352 -0.0128548695 0.009991512 0.008351926 -0.001559299 0.0097879255 -0.008559473
0.018041708 -0.028474875 0.02050353 -0.020305993 0.005085319 -0.018884087 0.016646324 -0.008650121
-0.028642753 -0.030320466 0.0021333194 -0.010012918 0.018623862 0.006925375 -0.028452713 -0.022274867
-0.015858222 0.015011025 -0.0019159205 -0.015521946 0.02090208 -0.023436133 0.009144569 0.0012145637
0.00947852 -0.020881366 -0.01295844 -0.009430116 -0.0028388298 0.016088264 0.0018416406 0.018082574
-0.017831476 -0.032839395 -0.009008175 -0.008390302 -0.019327767 -0.028643664 0.015953502 -0.007522204
0.006137091 0.00992094 -0.0072854212 -0.017701523 0.016110295 0.005740721 -0.016960658 0.011632665
0.018515546 -0.0012492476 0.008408954 -0.0056299744 0.033093244 -0.0057057273 -0.034321003 0.0020628853
0.00586154 0.0012743896 0.0034338343 -0.006471926 -0.023127727 -0.015125742 -0.0008492265 0.00341436
-0.0156134 0.0008073526 0.005625477 0.015751706 0.016948007 -0.00921852 -0.025782606 0.006524244
-0.0009093791 0.0027316825 -0.01954042 0.017333852 -0.012826858 0.016983125 -0.021553865 -0.025622746
0.0023665705 -0.031430993 -0.004588279 0.006174648 -0.025381714 0.004216264 0.006913915 -0.0002691188
-0.027750975 0.0067695146 0.0011891405 -0.014934614 0.016158957 0.014668772 -0.017123085 -0.015716985
-0.032450486 -0.0029864346 -0.021853056 -0.011800173 -0.013369433 -0.02806806 -0.017068427 -0.008254771
-0.0044857217 -0.005028872 0.014761452 -0.00074736 -0.0073088193 -0.02170433 -0.027414829 -0.014616513
0.008613125 -0.011902602 -0.0010242744 0.0065422393 -0.010150919 0.0075212303 0.019782959 -0.0151968775

fc1.bias f4 [128]
00000000: 663f d3bb 6999 febc 363b cf3a 660f c9bc
00000010: 6d78 063d 5c98 c23d 38b7 a13c f3e6 153d
00000020: 0541 41bc 45a4 fc3c 6f57 733d 6a1d 83bb
00000030: 23c7 cc3b f255 613c b941 51bc 1e6d 50bc
00000040: 0a89 a23d 8e5b 333d cc12 c1bc 8934 b3bc
00000050: 449e 8dbc 7ad4 d9b9 e760 7d3d 3d68 e83b
00000060: 349e 913c f4cb 3cbc c171 823c 22b0 3abc
00000070: a2c5 2b3d 6d90 7e3d 0b8e eeba 97e8 acbc
00000080: c9b1 443c bc78 a53d ee39 4c3d 42a7 a53d
00000090: 61da cfbc 6441 58bb 6870 c6bc 08ec 54bb
000000a0: f163 0e3d 433a 9b3d 8207 e5bc 4bf5 9ebb
000000b0: 5e0a 4f3c 4690 b43c 7db1 933c 5fde a23c
000000c0: e551 8e3c c6f6 b4bb dc47 8ebc 2135 093c
000000d0: e4c4 58bd 4981 923d 8e8f 843b 366b 92bb
000000e0: 9fd5 60bc 320c 673c a83e 113b 586b cfbc
000000f0: 6ee0 943d 0b9f 9e3d 5d13 5bbd 4b98 afbb
00000100: cc34 d43d 0693 8b3d bba7 fbbc a2f6 04bd
00000110: aba7 943d f893 03bc 093a 2e3d 9cd3 13bc
00000120: 2bfa f43c d68f 6e3d 4c13 d2bc 7f3a 843d
00000130: 8362 193c 48b6 0c3d 559f 69bd 6dbd 193d
00000140: bd8d 25bd 2afc 343c 5428 14bc 3e57 1cbc
00000150: 512c 343d 4a8d 613d 6e9b f2bc 76f6 95bc
00000160: 135a 2a3c 1f7c 6fbc d9d2 853d eaa1 93bc
00000170: 7888 9dbc 5c57 ce3b 5279 aa3d f8f0 34bb
00000180: 74c2 8fbc 8a93 d03c 4e69 94bc 8aed 0a3d
00000190: b2b1 f83b b016 c4bb e6a6 023d a7cd b03b
000001a0: 719f 863d 061f 8f3c 20ad c23c 562b 25bc
000001b0: 454a 3d3c 786f 7c3d 2217 563d 9d06 f33b
000001c0: aeb2 2a3c 41c3 71bc 73e8 3c3c fb3a 8abc
000001d0: 2ef0 933c acd4 c1bb ff61 76bb 5ceb 8a3c
000001e0: 41cf b9bc f7e4 f539 0ca4 773c 803d 7cbc
000001f0: 2a3d 0c3d edbc b23d b3a2 adbc 5222 81bc
-0.0064467667 -0.031079011 0.0015810493 -0.024543475 0.03282969 0.095017165 0.019740686 0.036597203
-0.011795287 0.030840049 0.059409555 -0.004001309 0.006249325 0.013753401 -0.012772017 -0.012721328
0.079362944 0.043788485 -0.023568533 -0.021875637 -0.017287381 -0.00041547773 0.06185999 0.0070925043
0.017775632 -0.011523236 0.015923383 -0.011394532 0.041936524 0.062149454 -0.0018200291 -0.021107001
0.012005278 0.08079669 0.049859934 0.080885425 -0.025372686 -0.003299796 -0.024223521 -0.0032489318
0.03476328 0.07579472 -0.027957682 -0.0048510185 0.012636749 0.022041451 0.018028969 0.019881425
0.017373035 -0.0055225817 -0.01736825 0.008374483 -0.052922145 0.071535654 0.0040454334 -0.004468347
-0.013722806 0.014102029 0.002216259 -0.02531974 0.07269369 0.07745179 -0.053485263 -0.005358731
0.10361633 0.06815152 -0.030719629 -0.03246177 0.072585426 -0.008030884 0.042535815 -0.00902262
0.029904446 0.05824264 -0.025643967 0.0645647 0.009361866 0.034353524 -0.057036716 0.037534166
-0.040418375 0.011046449 -0.009042818 -0.0095422845 0.043987576 0.055066384 -0.02961513 -0.018305998
0.010397452 -0.014616995 0.065343566 -0.018021543 -0.019230112 0.006297035 0.08323921 -0.002760945
-0.017548777 0.025460977 -0.01811662 0.03391794 0.0075895423 -0.00598415 0.031897448 0.0053956094
0.0657338 0.017470848 0.023764193 -0.010081133 0.011553352 0.061629742 0.052268155 0.00741656
0.010418577 -0.014756025 0.01153003 -0.016873827 0.018058863 -0.005915245 -0.0037595031 0.016957931
-0.022681834 0.00046900634 0.015114795 -0.015395522 0.034238018 0.08727441 -0.021195745 -0.015763436

fc2.weight f4 [10, 128]
00000000: ad4e 593d 7676 13bc eba2 38be 0500 8e3d
00000010: 02f0 dfbe 4b06 053e 1259 c3be 6b96 af3d
00000020: cfe6 b43d 36b2 9ebe 6ce9 263c 969f 14bd
00000030: 848b 793d a8c9 9abd c361 2d3d a50e fa3d
00000040: a5aa d0be 1bae 173d 86df e0bc aa1c 903d
00000050: e26e 94bd 2655 4bbd f7d7 c03c 1fab 5c3d
00000060: 7b17 933d 1b70 c43c 97c0 b8bd 149c a1bc
00000070: 4b2c aebe d11f 2a3b 97a0 633e 8a25 dd3d
00000080: 46f9 f4bd ecd5 9dbe 34b6 56be fb5e 05be
00000090: 8698 94bd 9b70 4bbd 4950 91bd 871f a73c
000000a0: ac2f 0fbe 1d34 b33d 3894 aebd e373 82bc
000000b0: c04f 263e 1479 a2be 4e34 193e 54f1 babd
000000c0: b4cf 67bd c519 803d e5e0 7b3d 51bf 25bd
000000d0: 235c c3bd c8fc 37be f52a 5f3d b471 253d
000000e0: adc3 a0bd 68db 9dbd 7e42 d43c 6090 76bd
000000f0: 5c47 9d3e a4f2 25bd d671 6b3d 2dae 3c3e
00000100: 00a8 943d 4d45 97be 8a99 e83d e096 2dbd
00000110: 63a1 f03d 8ae3 443d e4ad 65be 289a bcbc
00000120: b08c 613e 044e af3d 7b01 99bc 8e55 d83d
00000130: 805a d8bd 5996 903d 4d6b 393e f07c 173e
00000140: 6aec d03a aac2 503d 425a 76bd aa2f 84bd
00000150: 97ec e7bc df84 9f3c de1e 4a3c 126e 71bd
00000160: 9004 7cbd cc8c e3bc ec41 473d a2c6 893d
00000170: 7f77 913d c211 523c 5a32 053e f7b1 803d
00000180: b846 9c3d 1631 d2bd fb0b b43c c323 24be
00000190: 7966 2dbd be5c 42bb 5012 5ebe 2453 f5bc
000001a0: 59e1 823d 953d 453c 1a92 283e dfb2 773d
000001b0: 61cf e338 b719 c1b9 d1fa c83b 0b04 1dbd
000001c0: df66 33bc d861 c5bd 5511 7e3c be5d 1f3c
000001d0: bc5e d7be a1e7 27bd 2f74 00bd 6009 58bd
000001e0: 7166 9bbc cf9f 7b3d 8754 713d 55d9 513e
000001f0: 2569 c23d 6d3f 27be 64be 403d 20f3 b1bc
00000200: 0fd3 a93c 133e 423d 7c1f d23d 032d a73d
00000210: 21ef a73d 892b a5be 6c5a cebe 6643 b5bd
00000220: 3496 94bd 7d81 d73d c871 a53c af0c 2e3d
00000230: 77d9 df3d 750b 21be c85e 303d 9482 aabe
00000240: b06e ccbe 8693 123e 1765 40bd 7854 71be
00000250: d2a8 9cbd c862 85bd 635b b2be 0552 afbe
00000260: 83e5 93bd 8f0b f6bc 7093 2e3d 341b 3fbd
00000270: 9edf 35bc 3c41 bcbe d1f0 7cbe 4c5d 04bd
00000280: 9761 ff3d e4d8 47be 2677 333e 5fd2 f53c
00000290: 8e3a 023b 7c8d ab3a 957a b63c 08bb a7bd
000002a0: ce30 973e 1d42 f6be 3e89 df3d 4112 c1bd
000002b0: c039 ee3d 06ae a63e ff07 debe 8ff3 b83e
000002c0: 0a18 cdbe 4f7e 55be 1a6e 55bc 34f3 7b3c
000002d0: 6012 463e ff37 69be a298 d13c 34c9 98bd
000002e0: f38e 9f3b 3a99 e63d 3346 f4bd 9207 03bb
000002f0: ea31 3e3d 479b 90be 56db efbd 5ee4 bd3c
00000300: 1e1c bd3d b4bb 7ebe 001d fc3d ee8a 0e3d
00000310: c156 43be ad30 e73c d7bc 6bbe 9b82 253d
00000320: 0807 65be 3312 afbe 7427 a5bb 1606 2fbc
00000330: 4b26 acbc 386d 02bf bfc8 bb3e f7f4 1abb
00000340: 98d0 6cba f35a f73c b661 0dbd 038e d8bc
00000350: 8bc4 cc3d 4369 f2bd 3638 773b 4eda 89be
00000360: bc8f 96bd 9329 95bb ee86 4d3e 94d7 06bb
00000370: 6730 e23d 576c 993d 4c33 06bf 354e 8bbe
00000380: 971f 83bd 2f4d 80be cc19 afbc ba05 363e
00000390: 3605 803d bcc8 243d 3235 2f3e 6d13 1c3d
000003a0: 2b6a 2a3e db12 86bd 3966 b8be c3a6 e5bc
000003b0: a20b 71bd fca9 103c 5441 88be d94e 33bc
000003c0: ee73 9f3d c337 743d 6592 4fbd 2061 813c
000003d0: 11e4 b7be 45eb b63c 7627 043d e809 6bbe
000003e0: 4b36 f0bc 2cc8 863d b670 8abd a57c 123e
000003f0: b13e 9cbe 7574 dbbe 6195 9a3d a71f ad3c
0.053053547 -0.009000411 -0.18030898 0.069335975 -0.437378 0.12990682 -0.38153893 0.08573612
0.08833086 -0.3099534 0.010187488 -0.036285006 0.060924068 -0.07557994 0.04232956 0.122098245
-0.4075519 0.037031274 -0.027450334 0.07036717 -0.07247712 -0.04964175 0.02354048 0.05387413
0.07182213 0.023979237 -0.090211086 -0.019727744 -0.34018168 0.0025958905 0.22229229 0.10798176
-0.11961608 -0.30827272 -0.20967942 -0.13024513 -0.07255654 -0.049667936 -0.07095391 0.020400776
-0.13983029 0.08750174 -0.08524364 -0.0159244 0.1624136 -0.31733 0.14961359 -0.09128061
-0.056594566 0.06254915 0.061493773 -0.040465657 -0.09539058 -0.17967522 0.054484326 0.04039164
-0.07849822 -0.07707864 0.025910612 -0.06019628 0.30718505 -0.040514603 0.05748161 0.18425818
0.07258606 -0.2954506 0.1135741 -0.042380214 0.11749532 0.04806856 -0.22429615 -0.023022726
0.22026324 0.08559802 -0.018677464 0.10563193 -0.105641365 0.070599265 0.18107338 0.14793754
0.0015939598 0.050966896 -0.06014467 -0.06454404 -0.028311057 0.019472538 0.012336461 -0.05894286
-0.06152779 -0.027777098 0.048646852 0.06727339 0.0710287 0.012821617 0.13007489 0.06283944
0.07630676 -0.10263269 0.021978369 -0.16029267 -0.042334054 -0.002965733 -0.21686673 -0.029946871
0.06390638 0.012038608 0.16461983 0.06047332 0.00010862831 -0.00036830988 0.0061334153 -0.038333934
-0.010949819 -0.09637803 0.015507062 0.00972694 -0.42064464 -0.040992383 -0.0313608 -0.052743316
-0.018969746 0.061431702 0.058918502 0.20493062 0.09492711 -0.16332789 0.04705657 -0.021722376
0.020730523 0.04742248 0.102599114 0.08162882 0.08199907 -0.32259777 -0.4030336 -0.08850746
-0.072552115 0.10522745 0.020195857 0.042492565 0.1093015 -0.15727027 0.04305914 -0.33302748
-0.39928198 0.14314088 -0.046971407 -0.23567379 -0.076493874 -0.06512982 -0.34835348 -0.34242263
-0.0722151 -0.030034808 0.042621076 -0.046656802 -0.011100678 -0.3676852 -0.24701239 -0.032315537
0.12469786 -0.19516331 0.1752592 0.03000754 0.0019871327 0.001308843 0.022275249 -0.0818997
0.29529423 -0.48097315 0.10914849 -0.0942731 0.11632109 0.32554644 -0.43365476 0.3612332
-0.40057403 -0.20848964 -0.013026739 0.015377808 0.19342947 -0.22775267 0.025585476 -0.074602515
0.004869336 0.112596944 -0.11927452 -0.0019993526 0.04643432 -0.28243467 -0.11711757 0.023180183
0.092338786 -0.2487629 0.12310219 0.034800462 -0.19076063 0.028221453 -0.23021255 0.04040776
-0.22365963 -0.34193572 -0.0050401036 -0.010682603 -0.021014353 -0.50947905 0.36676595 -0.0023644546
-0.00090337684 0.030194735 -0.034517013 -0.026434904 0.09998425 -0.11836483 0.0037722713 -0.26924366
-0.07351634 -0.004552075 0.20071003 -0.0020575272 0.11044388 0.07491367 -0.5242202 -0.27208105
-0.0640251 -0.25058886 -0.021374606 0.17775622 0.06250994 0.040230498 0.17110136 0.038104463
0.16642062 -0.06546565 -0.3601549 -0.02803362 -0.058848985 0.00882959 -0.2661234 -0.010944092
0.07785784 0.05962349 -0.050676722 0.015793383 -0.35916188 0.022328982 0.032264195 -0.22952998
-0.029322764 0.065811485 -0.06759779 0.1430536 -0.3051658 -0.42862287 0.07548023 0.021133257

fc2.bias f4 [10]
00000000: 142e acbd 9e51 0fbe e922 ab3d d9e2 9e3c
00000010: 2ea2 4b3d 67cd 37bd 022c 93bd 5ea8 923d
00000020: d721 d33c 5dbc 56bd
-0.08407226 -0.13995978 0.08356268 0.019395279 0.049715213 -0.04487362 -0.07186128 0.0716102
0.025772972 -0.05242573
