model/model_ipex.pt (torch, 830509 bytes, 6 tensors)

conv1.bias f4 [16]
0	0x3e11a5e1	0.14223434
1	0x3dca3051	0.09872497
2	0xba134ef4	-0.000561937
3	0xbebb4aca	-0.36580497
4	0xbcdaef4b	-0.026725432
5	0x3ea53e16	0.3227393
6	0xbeaf6984	-0.3426019
7	0xbc94f9ed	-0.01818558
8	0xbee69ae9	-0.45040062
9	0x3cb26c4a	0.021780152
10	0x3e52e48a	0.20594993
11	0xbd334410	-0.04376608
12	0x3e81c8e0	0.25348568
13	0xbea5850c	-0.3232807
14	0xbee9365d	-0.45549288
15	0xbb0d3709	-0.0021547696

conv2.bias f4 [32]
0	0xbdfd0e2b	-0.12356218
1	0xbd80381c	-0.06260702
2	0xbd9ad89f	-0.075608484
3	0xbdaec592	-0.08533777
4	0x3d762ab8	0.060099334
5	0xbda9196c	-0.08256802
6	0xbe0d253c	-0.13783735
7	0xbd970a84	-0.073750526
8	0xbdd08afa	-0.10182758
9	0x3d44250b	0.04788689
10	0xbe56aef2	-0.20965174
11	0xbd6c5ebd	-0.057707537
12	0x3e2d7b04	0.16941458
13	0xbe459a7c	-0.19297212
14	0xbdcfca9c	-0.101460665
15	0xbe4cd676	-0.20003685
16	0xbde9e3c0	-0.11420393
17	0xbe72385d	-0.23654313
18	0x3ce41ec7	0.027846707
19	0x3d1adc48	0.037807733
20	0x3c7ca9d2	0.015421348
21	0xbdb862d8	-0.09003228
22	0x3d8ee12f	0.06976544
23	0xbde8134b	-0.11331805
24	0xbdd20099	-0.1025402
25	0xbe1ce4de	-0.15321681
26	0xbd51a774	-0.051185086
27	0x3dae6bac	0.085166305
28	0xbcb461cb	-0.022019288
29	0xbe017a61	-0.1264434
30	0x3db82dff	0.08993148
31	0xbea18e3a	-0.31553823

fc1.weight f4 [128, 1568]
0	0xbcadfa87	-0.021237625
1	0xbc17b690	-0.009259835
2	0xbc8ba452	-0.017046127
3	0xbcc70954	-0.02429644
4	0xbd0d122d	-0.034441162
5	0xbd372c59	-0.044720028
6	0xbcbbb053	-0.022911226
7	0x3c844fcc	0.016151331
8	0xbc7ca99c	-0.015421297
9	0xbd4581b3	-0.048219394
10	0xbcadbf5c	-0.021209411
11	0xbd0646f5	-0.032782514
12	0xbd081d8d	-0.033231307
13	0xbc1b38d3	-0.009473997
14	0xbc69dfb1	-0.014274524
15	0xbd2e4b88	-0.0425525
16	0xbd2d72f9	-0.042345975
17	0xbcac0aae	-0.021001186
18	0xbbe3c858	-0.006951373
19	0xbd275417	-0.04085168
20	0xbca6cd06	-0.020361435
21	0xbb819412	-0.003954419
22	0xbce35985	-0.027752647
23	0xbc048595	-0.008088489
24	0xbd1fc279	-0.039003823
25	0xbbbf0645	-0.005829605
26	0xbbed3c6f	-0.0072398703
27	0xbc851215	-0.016243974
28	0xbc2e346e	-0.010632617
29	0xbc2a9dca	-0.010413596
30	0xbca2d252	-0.01987568
31	0xbc9d10c8	-0.019173041
32	0xbd55bcc3	-0.05218197
33	0xbd53f56e	-0.051747732
34	0x3cb19b99	0.02168064
35	0xbd0c4585	-0.034245986
36	0xbd563cbb	-0.05230401
37	0xbce356f9	-0.027751433
38	0xbd2f24b5	-0.042759616
39	0xbd039512	-0.032124586
40	0xbcfa0829	-0.03052147
41	0xbc942602	-0.01808453
42	0xbc9a6de0	-0.01885122
43	0xbd64dc38	-0.05587408
44	0xbd06f6d0	-0.032950222
45	0xbc4c0b0d	-0.012453807
46	0xbccb4f69	-0.02481814
47	0xbd3d4f6c	-0.04621832
48	0xbd0ee8d8	-0.034890026
49	0xbc9800bb	-0.018555036
50	0xbc5deeb2	-0.013545679
51	0xbd2898ec	-0.041161463
52	0xbc2ba0c0	-0.0104753375
53	0xbcde78ef	-0.027157275
54	0xbd1e4d4f	-0.038647946
55	0x3a9d0ae3	0.0011981394
56	0xbce95dbf	-0.028487084
57	0xbc8f9896	-0.017528813
58	0xbca54f55	-0.02017943
59	0xbd39711e	-0.045273893
60	0xbc25fb42	-0.010130705
61	0xbc7541d3	-0.014969307
62	0x3c83b028	0.016075209
63	0xbd277760	-0.04088533
64	0x3b14021e	0.002258427
65	0xbc21861c	-0.009858634
66	0xbca4d41b	-0.020120671
67	0xbd1f49df	-0.03888881
68	0xbc1b78cd	-0.00948925
69	0xbccd1857	-0.02503602
70	0xbd26fd96	-0.040769182
71	0xbd4516b3	-0.04811735
72	0xbd5ea17d	-0.054353226
73	0xbcde4f50	-0.027137429
74	0xbd0dae6e	-0.034590177
75	0xbd29c0b9	-0.04144356
76	0x3be4c636	0.0069816364
77	0xbd5d4c9a	-0.05402813
78	0xbcd53eb4	-0.026030876
79	0xbce41386	-0.02784134
80	0xbd31b209	-0.04338268
81	0xbd287398	-0.041125864
82	0xbc3f9472	-0.011693107
83	0xbcb31f00	-0.021865368
84	0xbca12594	-0.019671239
85	0xbca7f174	-0.020500876
86	0xbd1a0a0e	-0.037607245
87	0xbd3ed383	-0.046588432
88	0xbc793994	-0.015211482
89	0xbd3deafb	-0.046366673
90	0x3c3a429f	0.011368423
91	0xbc9ab630	-0.018885702
92	0xb9f00d6b	-0.00045786364
93	0x3c80481c	0.015659384
94	0xbc002e2b	-0.007823507
95	0x3c07cd02	0.008288624
96	0xbc8c61de	-0.01713651
97	0xbc5a8cf5	-0.013339271
98	0x3cfed49d	0.031107241
99	0x3c29f102	0.010372402
100	0xbc382f2a	-0.011241714
101	0x3ad82625	0.001649086
102	0xbcd2a9a2	-0.025715653
103	0x3c6a98f6	0.014318695
104	0xbd3d95a4	-0.046285287
105	0xbc8350ea	-0.016029794
106	0xbbff4734	-0.0077904705
107	0xbbcb5dff	-0.0062062736
108	0x3c60e70f	0.013726964
109	0xbc6b515c	-0.014362659
110	0xbc815478	-0.015787348
111	0xbc3c69d3	-0.01149984
112	0xbd13b630	-0.03606242
113	0xbb847886	-0.004042688
114	0xbc6da214	-0.0145039745
115	0xbc6cddfe	-0.014457224
116	0x3c0f66e2	0.0087525565
117	0x3a11b67e	0.00055585045
118	0xbd4c018a	-0.049806155
119	0xbd194c23	-0.037426125
120	0xbc1d0ad6	-0.009585103
121	0x3c499d2e	0.012305541
122	0xbc3ac4ee	-0.011399491
123	0xbd624711	-0.055243555
124	0xbcd9ffd5	-0.026611248
125	0xbbdc0a6e	-0.0067151105
126	0xbcaf6190	-0.021408826
127	0xbcd1a5ac	-0.025591694
128	0x3b300741	0.0026859792
129	0xbcbe4f9c	-0.02323132
130	0xbc45d4e3	-0.012074682
131	0xbc7c0d8b	-0.015384088
132	0xbd0bd2f4	-0.034136727
133	0xbd02e03a	-0.03195212
134	0xbaf02f1b	-0.0018324585
135	0xbd277ce2	-0.040890582
136	0xbcc3667e	-0.023852583
137	0xbd6204c0	-0.05518031
138	0xbc4e6dc3	-0.012599411
139	0xbd054d98	-0.032544702
140	0xbd02b52e	-0.031911068
141	0xbb810f43	-0.003938587
142	0x3b6b8a14	0.0035940455
143	0x3c33f7a5	0.010984336
144	0xbcb56455	-0.022142569
145	0xbc7c943d	-0.015416202
146	0xbaad355f	-0.0013214758
147	0xbcd91f6e	-0.026504245
148	0xbcf445a1	-0.029818358
149	0xbcb9ead8	-0.02269499
150	0xbd4e08a4	-0.05030121
151	0xbb77ae21	-0.0037792998
152	0xbcc3601f	-0.023849545
153	0xbc9a2714	-0.018817462
154	0xbcf35b7f	-0.029706715
155	0xbceb71b2	-0.028740738
156	0xba58309e	-0.00082469906
157	0xb86f11f9	-5.699878e-05
158	0xbcbdfb84	-0.023191221
159	0xbc02b9cd	-0.007978869
160	0xbba9bcc1	-0.005179972
161	0x3c91a944	0.017780907
162	0xbccc711f	-0.024956284
163	0x3ba542c2	0.0050433585
164	0xbc0bcfab	-0.008533399
165	0x3b41bc9f	0.002956189
166	0x3bb6f167	0.0055829766
167	0x3c352ff6	0.011058798
168	0x3c3c92a6	0.011509573
169	0xbc5822ee	-0.013191922
170	0xbc923fc4	-0.017852671
171	0x3cb6ed20	0.022329867
172	0xbca66789	-0.020313041
173	0xbc28d8a7	-0.01030556
174	0xbc74ee5c	-0.014949407
175	0x3b7c086a	0.0038457164
176	0xbc99221b	-0.01869302
177	0xbcd3c459	-0.025850462
178	0xbd279bce	-0.04092007
179	0xbcc2bf62	-0.023772899
180	0xb9f6d704	-0.00047080975
181	0x3c950ce0	0.018194616
182	0xbcc15fc1	-0.02360523
183	0xbd1de11a	-0.03854475
184	0xbd3abd10	-0.04559046
185	0xbc59b8ca	-0.013288686
186	0xbb6dd4e0	-0.0036290213
187	0xbccb6263	-0.024827188
188	0xbc80c5bb	-0.015719285
189	0xbcae43b7	-0.021272523
190	0xbbe4fd1e	-0.0069881817
191	0xbd40ddd5	-0.047086556
192	0xbcf5171c	-0.029918246
193	0xbc9939e7	-0.018704368
194	0xbcfb1322	-0.030648772
195	0xbcc65ab7	-0.024213178
196	0xbbfc9428	-0.0077080913
197	0xbc50fa12	-0.012754934
198	0xbcb7bfcb	-0.022430321
199	0x3cb2b626	0.02181537
200	0xbcd86ba2	-0.02641851
201	0x3cb90ddb	0.022589615
202	0xbb8de988	-0.0043308176
203	0xbd0e97e4	-0.034812823
204	0xbb8daf3c	-0.004323868
205	0x3b1c1669	0.0023817068
206	0x3cd57084	0.026054628
207	0x3b641ca4	0.003480711
208	0xbc57a4a4	-0.013161812
209	0xbcd28caf	-0.025701849
210	0xbcc85b15	-0.024457494
211	0x3c4408e5	0.011965011
212	0xbd7784a2	-0.060429223
213	0xbd02a33a	-0.031893946
214	0xbd3d082b	-0.046150368
215	0xbce49873	-0.027904725
216	0xbc0391ee	-0.008030398
217	0xbd272557	-0.040807094
218	0xbc5657fa	-0.013082499
219	0xbd3dcf75	-0.046340425
220	0xbca9b801	-0.020717623
221	0xbcd2cee2	-0.025733415
222	0xbd2c8204	-0.04211618
223	0xbb539094	-0.003228222
224	0xbccce540	-0.025011659
225	0xbbdbd014	-0.0067081545
226	0xbcb6d1e0	-0.022316873
227	0x3b639531	0.0034726376
228	0xbc8f2bd1	-0.017476948
229	0xbd33710d	-0.043808986
230	0xbc3af7cf	-0.011411621
231	0xbc19538b	-0.009358297
232	0xbc0deeb7	-0.008662871
233	0xbb0d2388	-0.002153607
234	0xbc2e0130	-0.0106204
235	0xbc96f366	-0.018426608
236	0xbd1e30a7	-0.038620617
237	0xbbb63587	-0.00556058
238	0xbc1cf679	-0.009580248
239	0xbb4d0efb	-0.0031289447
240	0xbce7442a	-0.028230745
241	0xbcfbd787	-0.03074242
242	0x3c72a980	0.01481092
243	0x3a907808	0.00110221
244	0x3bec5202	0.0072119245
245	0xbcbc2932	-0.022968862
246	0xbc836826	-0.016040873
247	0x3b0b4c09	0.0021255037
248	0xbc4e2679	-0.012582415
249	0xbcb2dc50	-0.021833569
250	0xbcdae7a6	-0.026721787
251	0xbc4e75fb	-0.012601371
252	0xbce02ff3	-0.027366614
253	0x3aeb0442	0.0017930346
254	0xbcbc4db7	-0.022986276
255	0x3b31eb5a	0.0027148337

fc1.bias f4 [128]
0	0xbcae740b	-0.021295568
1	0x3c4274ad	0.011868638
2	0xbaa9bd83	-0.0012950156
3	0x3d7c8dc9	0.061658654
4	0xbc71f718	-0.014768384
5	0x3c4e3ca5	0.012587701
6	0x3da14b75	0.078757204
7	0xbd0d3ad0	-0.034479916
8	0xbcf29419	-0.029611634
9	0xbd112569	-0.035436068
10	0xbc368aa5	-0.011141454
11	0xbd13eb98	-0.03611335
12	0x3c0a2ee2	0.008434029
13	0xbb591d53	-0.003312905
14	0x3d1461e1	0.036226157
15	0x3d20e999	0.039285276
16	0x3d273ab2	0.04082746
17	0x3c8cf596	0.017206948
18	0x3bfb9da9	0.0076787067
19	0xbd125222	-0.03572286
20	0x3ccc098e	0.0249069
21	0x3b4895ff	0.0030606983
22	0xbc72f37d	-0.01482856
23	0x3c1f8455	0.00973614
24	0x3cebaeaa	0.02876981
25	0xbb29a5ce	-0.002588618
26	0x3d139524	0.036030903
27	0x3c674c06	0.0141172465
28	0x3d77365c	0.060354576
29	0x3d9faa1f	0.0779612
30	0x3c9147bc	0.0177344
31	0x3d129e27	0.035795357
32	0xbb8a3e8e	-0.004218883
33	0xbcecd6a0	-0.028910935
34	0x3bbf6da9	0.00584193
35	0xbc36668b	-0.011132847
36	0x3da71c57	0.08159702
37	0x3d458af1	0.048228208
38	0x3db91091	0.09036363
39	0xbce4bb68	-0.027921394
40	0x3d0b1093	0.033951353
41	0x3cf898fe	0.03034639
42	0x3c815f89	0.015792625
43	0xbd27648f	-0.040867385
44	0x3d920e43	0.071316265
45	0x3d966365	0.07343177
46	0x3d446441	0.047947172
47	0xbd1bc7fe	-0.038032524
48	0xbc98ed94	-0.018667974
49	0x3c953bac	0.01821693
50	0xbc17cfa2	-0.009265812
51	0x3d861cfc	0.06548497
52	0xbd09b499	-0.033619497
53	0x3cff44b5	0.031160692
54	0xbd6988b9	-0.057015155
55	0x3ce06374	0.027391173
56	0xbb97ade6	-0.0046288846
57	0xbc955038	-0.018226728
58	0x3d436175	0.047700364
59	0x3db2e304	0.08734706
60	0x3d2c2dd9	0.04203591
61	0x3c85538a	0.016275186
62	0x3d735e4b	0.059416097
63	0x3d74a806	0.059730552
64	0xbd2d2198	-0.042268366
65	0xbd084998	-0.03327331
66	0x3d421bfd	0.047389973
67	0xbcbe69bd	-0.02324378
68	0xbb3a10ff	-0.0028391478
69	0x3c6f2c08	0.0145979
70	0x3d7b9c76	0.06142851
71	0xbd8f1fa8	-0.0698846
72	0xbccebdbc	-0.025236957
73	0x3d8a7d92	0.06762232
74	0xb994c563	-0.00028375824
75	0x3d87b7c1	0.06626845
76	0xbcb811e7	-0.022469474
77	0xbc991ae2	-0.018689577
78	0xbcc4c1cf	-0.024018196
79	0x3b70f732	0.0036768434
80	0xbc54e3d2	-0.01299377
81	0xbd127051	-0.035751645
82	0x3c216b9d	0.009852317
83	0xbc6027a6	-0.013681328
84	0x3c59e79c	0.013299849
85	0xbd2b453e	-0.04181408
86	0x3d051be2	0.032497294
87	0x3cd2c667	0.025729371
88	0x3d80a67c	0.062817544
89	0xbc6dab88	-0.014506228
90	0xbcb8382c	-0.022487722
91	0x3c109bbc	0.0088261925
92	0xbd04ba19	-0.03240404
93	0x3d42ab10	0.04752642
94	0xbc1fc05d	-0.009750453
95	0xbd0908ff	-0.033455845
96	0x3c588a48	0.013216563
97	0x3d7e0263	0.062013995
98	0x3d6ab1a5	0.05729832
99	0xbcb4d353	-0.022073423
100	0x3d860eeb	0.06545814
101	0x3bf588ce	0.007493115
102	0xbd4c7179	-0.049912903
103	0x3ca2d405	0.01987649
104	0x3d5c0cd7	0.053723183
105	0xbc05ce1a	-0.008166814
106	0x3d3800cf	0.044922646
107	0xbc78f658	-0.015195452
108	0xbb8eb590	-0.00435514
109	0x3d932c9b	0.07186242
110	0x3cad422f	0.021149723
111	0xbcccac13	-0.024984395
112	0xbc93b27c	-0.018029444
113	0xbd0f0d9b	-0.034925085
114	0x3d176572	0.03696198
115	0x3d31c106	0.043396972
116	0x3d0f7a56	0.035028778
117	0x3c5a44d0	0.01332207
118	0xbd0c7938	-0.03429529
119	0xbc79df53	-0.015250999
120	0xbbd1b12d	-0.006399295
121	0xbd1ca8b4	-0.038246825
122	0x3d391a84	0.045191303
123	0x3d7019c3	0.05861832
124	0x3d081ddb	0.033231597
125	0x3cbf7f44	0.023376115
126	0xbcec2cc6	-0.028829943
127	0x3dd477bb	0.10374399

fc2.weight f4 [10, 128]
0	0x3bdd9332	0.006761932
1	0x3e14e1ef	0.14539312
2	0xbcde46dc	-0.027133398
3	0xbcb1cd4d	-0.02170434
4	0x3de617fc	0.112350434
5	0x3d0c6454	0.034275368
6	0x3da30dd3	0.07961621
7	0x3d629eef	0.055327352
8	0x3d36576e	0.044516973
9	0xbdcddcbf	-0.100518696
10	0x3da3fb5e	0.08006929
11	0xbd1b6845	-0.037941236
12	0xbcd3cea8	-0.025855377
13	0x3d292dea	0.041303553
14	0x3d0f4653	0.034979176
15	0xbe6371ba	-0.22211352
16	0xbe1c495b	-0.15262358
17	0x3d7037a3	0.05864681
18	0xbaa63dac	-0.0012683175
19	0x3c88ef00	0.016715527
20	0xbe4fbe39	-0.20287408
21	0xbd68d264	-0.05684127
22	0xbb0330c1	-0.0020018073
23	0x3d685dff	0.056730267
24	0xbc81293c	-0.015766732
25	0xbd535d73	-0.051602792
26	0x3db5238f	0.08844673
27	0x3d5dac69	0.0541195
28	0xbf1b05f0	-0.60555935
29	0xbe8c78df	-0.27435967
30	0x3e3401e6	0.17578849
31	0xbe1a2960	-0.15054846
32	0x3dcc7061	0.09982372
33	0xbd44dd41	-0.048062567
34	0x3dc1b8f7	0.09459107
35	0xbdbc73c5	-0.09201769
36	0xbea26b37	-0.31722423
37	0x3cf7179d	0.030162627
38	0xbeba29e4	-0.36360085
39	0xbec8440d	-0.3911442
40	0xbe8c523f	-0.274065
41	0x3ddc2f28	0.10751182
42	0xbdccd16a	-0.1000088
43	0x3d79895e	0.06092202
44	0x3c2ce305	0.010552173
45	0x3d9de07c	0.077088326
46	0x3d748f3d	0.059706915
47	0x3d19505f	0.037430163
48	0xbd1aa4d5	-0.037754852
49	0x3dba8b78	0.09108633
50	0x3c2267eb	0.009912471
51	0xbdacd08f	-0.08438217
52	0x3d604155	0.054749805
53	0x3d1ea67c	0.03873299
54	0x3d5c28f6	0.05375
55	0x3e232673	0.15932636
56	0x3c906663	0.017626947
57	0x3e13d042	0.14434913
58	0x3def61c4	0.11688569
59	0xbe43047f	-0.19044684
60	0x3b3345fb	0.0027354944
61	0xbc6d6b5a	-0.014490927
62	0x3d28d2c3	0.041216623
63	0x3cfe8f9f	0.031074343
64	0xbd5c4abe	-0.053782217
65	0x3e93f5f8	0.28898597
66	0xbe62b441	-0.22139074
67	0xbe5af005	-0.21380623
68	0xbcb73970	-0.022366256
69	0x3d35f524	0.044423237
70	0xbc7c8009	-0.015411385
71	0xbc1eb0e7	-0.0096857315
72	0x3d9ef0dd	0.07760785
73	0xbe82be28	-0.25535703
74	0x3e58bf04	0.21166617
75	0x3e211dbe	0.15734002
76	0xbd780ad7	-0.060557213
77	0x3cc4c6fd	0.024020666
78	0xbcef093b	-0.029179206
79	0xbe617f8a	-0.22021309
80	0xbd19a096	-0.037506662
81	0x3c431048	0.011905737
82	0xbd9aee3e	-0.07564972
83	0xbc9ae372	-0.018907283
84	0xbee04e70	-0.43809843
85	0xbd7d3396	-0.061816774
86	0x3e4e378f	0.20138381
87	0xbee0595b	-0.43818173
88	0xbee6db66	-0.45089263
89	0x3d8d003b	0.068848096
90	0x3cd3ac8b	0.02583911
91	0x3de001f5	0.10937873
92	0x3ea6cde5	0.3257896
93	0x3dd03562	0.10166432
94	0xbdc468a2	-0.095902696
95	0xbd8dd8d3	-0.069261216
96	0x3d923176	0.0713834
97	0x3dd2f459	0.10300512
98	0xbe0f32b5	-0.13984187
99	0x3b8f90a3	0.0043812557
100	0x3d30d207	0.043169048
101	0xbdea6f18	-0.11446971
102	0xbc3b0ff8	-0.011417381
103	0x3e9bd507	0.30435964
104	0xbc4d8d80	-0.012545943
105	0x3dd8a70f	0.10578739
106	0xbe2f13c2	-0.17097381
107	0x3c13d62d	0.009023231
108	0xbdde70e7	-0.10861378
109	0x3d396e06	0.045270942
110	0x3de719fa	0.112842515
111	0x3da49e68	0.08038026
112	0x3bb8efca	0.0056438195
113	0xbcb96c43	-0.022634631
114	0x3df4ddf0	0.11956394
115	0x3e70e321	0.23524143
116	0x3d577d93	0.05260999
117	0xbd5490f3	-0.051896047
118	0xbdec9b10	-0.11553013
119	0x3d66110c	0.0561686
120	0x3e1134ff	0.14180373
121	0x3d6c7264	0.05772628
122	0x3d00c51c	0.03143798
123	0xbe80da5e	-0.251666
124	0xbb0a5d0c	-0.002111259
125	0xbe741f32	-0.23840025
126	0x3de5591f	0.11198639
127	0xbee60c40	-0.4493122
128	0xbd32a11b	-0.043610673
129	0xbe1cee0c	-0.15325183
130	0xbd81229e	-0.06305431
131	0xbeddc62b	-0.43315253
132	0x3d937cbb	0.07201525
133	0x3c909eb0	0.017653793
134	0xbd795dae	-0.060880356
135	0xba8db676	-0.0010811824
136	0x3d9f097a	0.077654794
137	0x3c3ec792	0.011644261
138	0xbcf9032c	-0.03039702
139	0xbdb624ac	-0.08893713
140	0xbc15a8ae	-0.009134455
141	0x3d4ee64a	0.05051259
142	0x3ded24c2	0.115792766
143	0x3d01ecb6	0.031719886
144	0xbb8c8a9d	-0.004288985
145	0xbee743a2	-0.45168787
146	0xbd9528d3	-0.07283177
147	0xbd182da3	-0.037152898
148	0xbee3e8ee	-0.4451365
149	0x3d086359	0.03329787
150	0xbd0e2d0d	-0.034710933
151	0x3d221418	0.039569944
152	0x3d0d2a9d	0.034464467
153	0x3d4cd316	0.050005995
154	0xbef6ccc8	-0.4820311
155	0x3d445c26	0.047939442
156	0x3e2615e0	0.16219282
157	0x3e830329	0.25588349
158	0xbec4904e	-0.38391346
159	0xbebf72d6	-0.373923
160	0xbe604a5b	-0.21903364
161	0x3da48cd2	0.08034672
162	0x3e4ba3c9	0.19886698
163	0x3d4e3467	0.050342944
164	0x3c2be339	0.010491186
165	0xbea1ad52	-0.31577545
166	0xbe9079d6	-0.28217953
167	0x3d3521be	0.044221632
168	0xbeb0d915	-0.3454062
169	0x3d6b27ea	0.057411112
170	0xbddf4174	-0.10901156
171	0xbd6f9d91	-0.058499876
172	0x3e7c07e3	0.24612384
173	0xbe112c2e	-0.1417701
174	0xbead5f6e	-0.3386187
175	0xbd8722af	-0.06598412
176	0x3dda8d1d	0.106714465
177	0xbc227d34	-0.009917546
178	0xbdf1d66f	-0.11808478
179	0xbecb773f	-0.39739415
180	0x3d0ec864	0.034859076
181	0x3d7f83ad	0.062381435
182	0xbdd9af3c	-0.106291264
183	0x3cc1f047	0.023674143
184	0xbb1ccc54	-0.00239255
185	0x3cebcc0b	0.028783819
186	0xbed2be51	-0.41160825
187	0x3cc95dfa	0.024580944
188	0x3e4ce4c9	0.2000915
189	0x3cd0cdc3	0.02548874
190	0xbf06c520	-0.5264454
191	0xbf0e7e5d	-0.55661565
192	0x3d13a656	0.036047302
193	0xbe97f977	-0.29682514
194	0xbe11576c	-0.14193505
195	0x3e6d747a	0.23188964
196	0xbd731a51	-0.05935127
197	0xbf118108	-0.5683751
198	0xbe3fbf70	-0.18725371
199	0x3d8121d0	0.06305277
200	0x3d94e627	0.072704606
201	0x3eca84fe	0.3955459
202	0x3dba588a	0.09098919
203	0xbdc9f637	-0.09861415
204	0x3d03ef09	0.032210384
205	0xbd5fe452	-0.054661103
206	0x3b1f5260	0.0024310574
207	0x3e53f828	0.20700133
208	0xbd5d37b0	-0.054008186
209	0x3d780c76	0.06055876
210	0x3d623f66	0.055236243
211	0xbddbecc6	-0.1073852
212	0x3dcbcad6	0.09950797
213	0xbd4902d2	-0.049074955
214	0x3ecaf04e	0.39636463
215	0x3df72065	0.12066726
216	0xbe2b77cf	-0.16744922
217	0x3cc10221	0.023560585
218	0xbd00810d	-0.031373072
219	0xbf0dbce7	-0.5536637
220	0xbe79b87d	-0.24386783
221	0xbd26264d	-0.04056387
222	0xbd257d61	-0.040402774
223	0x3d465d46	0.048428796
224	0x3d0554a2	0.032551415
225	0xbdd6b986	-0.104846045
226	0xbdbdf41b	-0.09275075
227	0x3d5a91f6	0.053361855
228	0xbda3bcd9	-0.07995004
229	0x3de8a615	0.11359803
230	0xbd941fb8	-0.07232612
231	0xbdd55c2c	-0.10417971
232	0x3dfa2c93	0.12215533
233	0xbeb58a63	-0.35457143
234	0xbe798b9e	-0.24369666
235	0xbd5fcb3d	-0.054637183
236	0x3d5589e5	0.05213346
237	0x3e076e20	0.13225603
238	0x3e2bde7f	0.16784094
239	0xbd5c003d	-0.053711165
240	0xbdadbf34	-0.08483735
241	0x3cbdb34d	0.023156786
242	0xbeb0db51	-0.34542325
243	0xbe730784	-0.23733336
244	0x3e21170f	0.15731452
245	0x3d850b0e	0.06496249
246	0xbd2a06fa	-0.04151056
247	0xbceb7eed	-0.028747046
248	0x3e52d0a4	0.20587403
249	0xbdd2910b	-0.10281571
250	0x3e329680	0.17440224
251	0xbd077b65	-0.033076663
252	0x3defd87d	0.11711214
253	0x3e3bce22	0.18340352
254	0x3e142fbc	0.14471334
255	0xbd94a0b6	-0.07257216

fc2.bias f4 [10]
0	0xbc65f471	-0.01403533
1	0xbe013aa7	-0.1262003
2	0x3e0df27c	0.13862032
3	0x3d9e68ff	0.0773487
4	0xbd4659bc	-0.04842542
5	0x3cec78d4	0.02886621
6	0xbd604ab0	-0.054758728
7	0xbd5a4810	-0.05329138
8	0x3cc1c9b4	0.02365575
9	0xbccf78c8	-0.025326148
